…
2020-11-18 21:34:45,378 Classify INFO: seed:666666
2020-11-18 21:34:45,378 Classify INFO: dropout:0.3
2020-11-18 21:34:45,379 Classify INFO: optim:adam
2020-11-18 21:34:45,379 Classify INFO: js_train_path:./data/new_train.json
2020-11-18 21:34:45,379 Classify INFO: js_test_path:./data/new_test.json
2020-11-18 21:34:45,379 Classify INFO: train_data_dir:./data/train.pkl
2020-11-18 21:34:45,379 Classify INFO: test_data_dir:./data/test.pkl
2020-11-18 21:34:45,379 Classify INFO: [1] Building model
2020-11-18 21:34:48,669 Classify INFO: AlbertClassifierModel(
  (albert_model): AlbertModel(
    (embeddings): AlbertEmbeddings(
      (word_embeddings): Embedding(21128, 128, padding_idx=0)
      (position_embeddings): Embedding(512, 128)
      (token_type_embeddings): Embedding(2, 128)
      (LayerNorm): LayerNorm((128,), eps=1e-12, elementwise_affine=True)
      (dropout): Dropout(p=0, inplace=False)
    )
    (encoder): AlbertTransformer(
      (embedding_hidden_mapping_in): Linear(in_features=128, out_features=768, bias=True)
      (albert_layer_groups): ModuleList(
        (0): AlbertLayerGroup(
          (albert_layers): ModuleList(
            (0): AlbertLayer(
              (full_layer_layer_norm): LayerNorm((768,), eps=1e-12, elementwise_affine=True)
              (attention): AlbertAttention(
                (query): Linear(in_features=768, out_features=768, bias=True)
                (key): Linear(in_features=768, out_features=768, bias=True)
                (value): Linear(in_features=768, out_features=768, bias=True)
                (attention_dropout): Dropout(p=0, inplace=False)
                (output_dropout): Dropout(p=0, inplace=False)
                (dense): Linear(in_features=768, out_features=768, bias=True)
                (LayerNorm): LayerNorm((768,), eps=1e-12, elementwise_affine=True)
              )
              (ffn): Linear(in_features=768, out_features=3072, bias=True)
              (ffn_output): Linear(in_features=3072, out_features=768, bias=True)
              (dropout): Dropout(p=0, inplace=False)
            )
          )
        )
      )
    )
    (pooler): Linear(in_features=768, out_features=768, bias=True)
    (pooler_activation): Tanh()
  )
  (convs): ModuleList(
    (0): Sequential(
      (0): Conv1d(768, 2, kernel_size=(2,), stride=(1,))
      (1): LeakyReLU(negative_slope=0.01)
      (2): MaxPool1d(kernel_size=499, stride=499, padding=0, dilation=1, ceil_mode=False)
    )
    (1): Sequential(
      (0): Conv1d(768, 2, kernel_size=(3,), stride=(1,))
      (1): LeakyReLU(negative_slope=0.01)
      (2): MaxPool1d(kernel_size=498, stride=498, padding=0, dilation=1, ceil_mode=False)
    )
    (2): Sequential(
      (0): Conv1d(768, 2, kernel_size=(4,), stride=(1,))
      (1): LeakyReLU(negative_slope=0.01)
      (2): MaxPool1d(kernel_size=497, stride=497, padding=0, dilation=1, ceil_mode=False)
    )
  )
  (fc_layer1): Linear(in_features=774, out_features=774, bias=True)
  (fc_layer2): Linear(in_features=774, out_features=303, bias=True)
  (dropout): Dropout(p=0.3, inplace=False)
)
2020-11-18 21:34:48,671 Classify INFO: [2] Start training......
2020-11-18 21:35:39,207 Classify INFO: progress: 0.01  loss: 3.2293 (4.0666)
2020-11-18 21:36:29,890 Classify INFO: progress: 0.02  loss: 3.4858 (3.7332)
2020-11-18 21:37:20,578 Classify INFO: progress: 0.03  loss: 2.6800 (3.5101)
2020-11-18 21:38:11,268 Classify INFO: progress: 0.04  loss: 3.1966 (3.4741)
…
